triplane_decoder/decoder_models/plane_decoder.pt (torch, 142931 bytes, 6 tensors)

0._B f4 [32, 64]
0	0xbefc250d	-0.49247018
1	0x3f890738	1.0705328
2	0xbfaf95a1	-1.3717538
3	0xbfeb0816	-1.8361843
4	0xbf770e0a	-0.96505797
5	0xbf39ec19	-0.7262588
6	0x3e9585b8	0.29203582
7	0x3f677764	0.9041655
8	0x3e83de89	0.25755718
9	0x3f513adb	0.8173043
10	0xbe2be65f	-0.16787098
11	0x3ec69384	0.3878442
12	0x3f9a9bd1	1.2078801
13	0x3ddfad55	0.10921732
14	0x3d1d2d5a	0.03837333
15	0x3e9b2dfc	0.3030852
16	0xbff54cc7	-1.9164056
17	0x3f30038d	0.6875542
18	0xbe68cb3f	-0.22733782
19	0x3f8e8a2a	1.1135914
20	0xbf006f1d	-0.50169545
21	0xbffafc38	-1.9608221
22	0x3d14f0f0	0.03636259
23	0x3f1f8361	0.62309843
24	0x3e88c772	0.26714665
25	0xbe68efda	-0.22747746
26	0xbe928b6d	-0.28621998
27	0x3f70fda4	0.94137025
28	0x3f563fcd	0.836911
29	0x3f53b39c	0.8269594
30	0xbf2cf2bb	-0.6755788
31	0x3eb83978	0.35981345
32	0x3f983f7b	1.1894373
33	0xbcba5407	-0.022745145
34	0x3fb6abed	1.4271218
35	0x3fc68cf0	1.5511761
36	0x3f050702	0.5196382
37	0x3eb786ef	0.35845134
38	0x3f4ac5c4	0.79208016
39	0xbf38d21e	-0.72195613
40	0x3ddaa818	0.106765926
41	0xbe6c1a1f	-0.2305684
42	0x3f79f722	0.9764272
43	0xbfb8c1e1	-1.4434167
44	0x3f50fee9	0.8163896
45	0x3f2a8bf1	0.66619784
46	0xbea075b0	-0.31339788
47	0xbf50b02a	-0.81518805
48	0xbf22684a	-0.6344038
49	0x3f7acebe	0.97971714
50	0x3d9360ff	0.07196235
51	0x3f43c78f	0.7647638
52	0x400adc5c	2.1696997
53	0x3f541949	0.8285108
54	0x4003d60a	2.059939
55	0x3f1372dc	0.57597136
56	0x4002c6dd	2.0433877
57	0xbe5afc84	-0.2138539
58	0x3f1bf016	0.6091322
59	0xbf420982	-0.7579576
60	0xbbb17f1a	-0.005416763
61	0x3fc6898f	1.551073
62	0x3f407625	0.75180274
63	0x3fc0d403	1.5064701
64	0xbf942bab	-1.1575826
65	0x401022de	2.2521281
66	0x3f05bae4	0.522383
67	0xbfc2d51c	-1.5221286
68	0xbe2acc4c	-0.16679496
69	0xc003f0ca	-2.0615716
70	0x3e89e41d	0.2693185
71	0x3ee4c632	0.4468246
72	0x3f3af35a	0.73027575
73	0xbf8e9508	-1.1139231
74	0xbb3db80c	-0.0028948812
75	0xbe39976a	-0.18124166
76	0xbed40bba	-0.41415197
77	0x3f3a0c0f	0.7267465
78	0x3eb7d5c8	0.3590529
79	0xbfc31a21	-1.5242349
80	0xbcbd7555	-0.023127237
81	0xbec224f6	-0.37918824
82	0xbf6e22ee	-0.9302205
83	0x3fb10f29	1.3832752
84	0xbfd459af	-1.6589869
85	0xbf073632	-0.5281707
86	0x3eaeddff	0.34153745
87	0x3e47e2fc	0.19520181
88	0xbf8ec9c1	-1.115532
89	0xbee8751f	-0.45401856
90	0xbf575339	-0.8411136
91	0x3f33b370	0.70195675
92	0xbe223486	-0.15840349
93	0x3e66da7c	0.22544283
94	0x3f3ff363	0.74980754
95	0xbf970d5e	-1.1800954
96	0xbf29871e	-0.662218
97	0xbff4187a	-1.906997
98	0xbf7d41f7	-0.9892878
99	0xbf984dcb	-1.189874
100	0x3eb6ded8	0.3571689
101	0xbfef2db8	-1.8685827
102	0x3f5052e4	0.8137648
103	0x3e72666f	0.23671888
104	0x3f42dda0	0.7611942
105	0x3f9158c2	1.1355212
106	0x3f3a50c6	0.727795
107	0xbf9c2da3	-1.2201427
108	0xbf8bf337	-1.0933598
109	0x3e4fcf24	0.20293862
110	0xbeb5989f	-0.35468003
111	0x401c24d9	2.439749
112	0x3ebc9d22	0.36838633
113	0x3f3bfae4	0.73429704
114	0xbe814386	-0.2524683
115	0xbf5434c0	-0.8289299
116	0xbee7e032	-0.45288235
117	0x3ebf1590	0.37321138
118	0x3ed63905	0.41840377
119	0xbf1ca2b0	-0.6118574
120	0xbe94c37e	-0.290554
121	0x3fdd04c5	1.726708
122	0x3ed3a921	0.41339973
123	0xbf2655a2	-0.64974415
124	0x3e152558	0.14565027
125	0x3fa87ed5	1.3163706
126	0xbf631855	-0.88709
127	0xbf71f4ae	-0.94513977
128	0xbf59ebcb	-0.85125417
129	0x3e6bde31	0.23033978
130	0xbf690ed1	-0.91038233
131	0xbf81ad14	-1.0130944
132	0xbeb68d7e	-0.35654825
133	0x3f01cd9e	0.5070437
134	0xbfb66d97	-1.4252194
135	0xbf3c5c5a	-0.7357842
136	0x401eedc2	2.4832616
137	0x3e0d4eb3	0.13799553
138	0xbfd5070d	-1.6642777
139	0xbfa8b39d	-1.3179814
140	0xbd2d0375	-0.042239625
141	0x3ff4e08f	1.913103
142	0x3f201eda	0.62547076
143	0xbf45abeb	-0.7721545
144	0x3edd2508	0.43192315
145	0xbf39fecc	-0.72654414
146	0x3f0a0949	0.5392042
147	0xbf92891d	-1.1448094
148	0xbf0701a1	-0.5273686
149	0x3ff3635b	1.9014696
150	0xc00b7081	-2.1787417
151	0x40030456	2.0471396
152	0x3e457c37	0.19285665
153	0xbed3be74	-0.41356242
154	0xc0132d74	-2.2996492
155	0xbf9d6df9	-1.2299186
156	0x3dd22a12	0.102619305
157	0x3fb80b68	1.4378481
158	0xbe057191	-0.13031603
159	0xc0124d33	-2.2859619
160	0x3dfc120b	0.12308129
161	0xbdb1fcc3	-0.086907886
162	0x3e8a3412	0.26992851
163	0xbede8b64	-0.43465722
164	0xbe91c70b	-0.2847217
165	0x3f2c7fdd	0.67382604
166	0xbeeb45c6	-0.4595167
167	0xbf73fb09	-0.95304924
168	0xbf7d8dd1	-0.9904452
169	0x3eafa328	0.34304166
170	0xbefb2ba3	-0.4905673
171	0x3f4517ac	0.76989245
172	0xbe53485f	-0.20633076
173	0xc01b3e63	-2.4256828
174	0xbfa18844	-1.261971
175	0xbfa81f3e	-1.3134534
176	0x3f16d85f	0.58923906
177	0xbf0e23db	-0.5552346
178	0x3f051b63	0.51994914
179	0xbf1d10dd	-0.61353856
180	0xbf66e327	-0.90190357
181	0xbf9e9af6	-1.239104
182	0x3e5960b3	0.21228294
183	0x3e2495c1	0.16072752
184	0xbf793598	-0.973474
185	0xc00f029d	-2.2345345
186	0xbfc7f645	-1.562203
187	0x3f9810cc	1.1880126
188	0xbfe6cd6b	-1.8031439
189	0x3f46aaf0	0.7760458
190	0xbf6298aa	-0.88514197
191	0xbf6c09a4	-0.9220221
192	0xbea78001	-0.32714847
193	0x3fb63e7e	1.4237821
194	0x3f2c4e74	0.6730721
195	0xbe9c6b8d	-0.30550805
196	0xbe8798a8	-0.26483655
197	0x3e5c905b	0.21539442
198	0xbefc87dc	-0.49322402
199	0x3f9588f5	1.1682421
200	0xc00c11ae	-2.188579
201	0xbe062051	-0.13098265
202	0xbf6310eb	-0.8869769
203	0xc0073198	-2.112402
204	0xbec5aaf7	-0.38606998
205	0x3f404528	0.75105524
206	0x3f0109d5	0.5040563
207	0xbfbb4c70	-1.4632702
208	0xbffd1e9d	-1.9774967
209	0xbe874438	-0.26419234
210	0xbf876036	-1.0576236
211	0xbf205586	-0.626305
212	0x3fa2d00d	1.2719742
213	0x3f273007	0.6530766
214	0x3f3ed5d0	0.74545
215	0x3ed94351	0.4243417
216	0x3f8613cf	1.0474795
217	0xbfd0f61e	-1.6325109
218	0x3ea9785a	0.33099633
219	0xbfa027a5	-1.2512099
220	0xbfc7f20a	-1.562074
221	0x3e575d15	0.21031602
222	0x3f128274	0.57230306
223	0xbf275db2	-0.6537734
224	0xbf3a8088	-0.72852373
225	0x3e18a17e	0.14905354
226	0x3fbb955e	1.4654958
227	0x401710fd	2.360412
228	0xbf5f8abc	-0.87321067
229	0x3fb16450	1.3858738
230	0xbf22e2ab	-0.6362712
231	0x3dd125e6	0.10212307
232	0xbf2c610d	-0.6733559
233	0x3fb2db29	1.3973132
234	0x3fa69474	1.3014054
235	0xbf9f52f1	-1.2447187
236	0xbe2b164a	-0.16707721
237	0xbe37f294	-0.1796363
238	0xbf22d801	-0.63610846
239	0x3f60b9df	0.87783617
240	0xbe30e6a5	-0.17275484
241	0xbf3c56d0	-0.73569965
242	0xbf0270f8	-0.50953627
243	0x3f0372a1	0.51346785
244	0x3db1dd7c	0.08684823
245	0xbe18658c	-0.14882487
246	0x3ea026e6	0.31279677
247	0x3f599aa0	0.85001564
248	0xbf8c992d	-1.0984246
249	0xbca9dc22	-0.02073485
250	0x400b7ab9	2.1793654
251	0xbf1b0f26	-0.6056999
252	0xbe73b165	-0.2379814
253	0xbf598f17	-0.8498396
254	0x3e7d73ef	0.24751256
255	0x3fad3104	1.3530583

1.weight f4 [128, 128]
0	0xbceca17e	-0.0288856
1	0xbd2923b4	-0.041293815
2	0x3d7728e0	0.060341716
3	0xbda54bce	-0.08071099
4	0x3cc6b773	0.024257397
5	0x3d8d5623	0.06901195
6	0x3db61546	0.08890776
7	0x3d84c614	0.06483093
8	0x3e309d3d	0.17247482
9	0x3dd43d59	0.10363264
10	0xbd815a6b	-0.06316074
11	0xbd40c77d	-0.047065247
12	0x3c6ce324	0.014458451
13	0x3c17bff4	0.009262074
14	0xbbfcf5a0	-0.0077197105
15	0x3cfa3424	0.03054244
16	0xbd4accac	-0.049511597
17	0xbcfa386d	-0.030544484
18	0x3d64a21a	0.055818655
19	0x3e16c102	0.14722064
20	0xbd9d2f50	-0.0767504
21	0xbd06f8e5	-0.032952208
22	0xbdb7a058	-0.0896613
23	0xbd02c2da	-0.031924106
24	0xbd49dabe	-0.049280874
25	0x3db19448	0.086708605
26	0xbde45339	-0.11148686
27	0x3e468ba1	0.19389202
28	0x3dbb9967	0.091601186
29	0xbd343d45	-0.044003744
30	0x3d1f598c	0.038903758
31	0xbce108eb	-0.027470073
32	0x3e42bc90	0.19017243
33	0xbd76ea29	-0.060281906
34	0x3dcd686c	0.100296825
35	0xbc934afb	-0.01798009
36	0xbd10e159	-0.03537116
37	0x3dcc372a	0.09971459
38	0xbd916020	-0.070984125
39	0xbd917afc	-0.071035355
40	0xbb592fe1	-0.003314011
41	0x3d56cb35	0.052439887
42	0xbd4f3488	-0.050587207
43	0xbcb795a1	-0.022410216
44	0xbd4d5d53	-0.05013783
45	0xb9e5a998	-0.0004380464
46	0x3d2fe864	0.042946234
47	0xbd3f2545	-0.046666402
48	0x3d59bc36	0.053158008
49	0x3db00e3a	0.085964635
50	0x3d89c422	0.067268625
51	0xbcc22761	-0.023700418
52	0x3cb23068	0.021751598
53	0x3cd80a23	0.026372021
54	0x3d90c266	0.070683286
55	0x3dcfc318	0.10144633
56	0xbd53ca8f	-0.051706847
57	0x3e0ccaab	0.13749187
58	0x3c03120a	0.007999906
59	0x3c46659f	0.012109189
60	0xbd0aea7b	-0.033915024
61	0x3d00bb71	0.031428758
62	0xbaf2c34d	-0.0018521339
63	0x3cc530d5	0.024071136
64	0xbc4f48fb	-0.012651677
65	0xbdef2c18	-0.11678332
66	0x3d07debc	0.0331714
67	0xbdb033dd	-0.08603642
68	0x3d1a40ef	0.03765958
69	0xbde01e6c	-0.109433025
70	0x3da5814f	0.08081304
71	0xbceb89b3	-0.028752184
72	0xbd28f58f	-0.041249808
73	0xbc4404bc	-0.011964019
74	0xbd3ce6a0	-0.04611838
75	0x3ca13d26	0.019682478
76	0xbc66b79a	-0.01408186
77	0xbda72680	-0.0816164
78	0x3e02967d	0.12752719
79	0xbc6ab685	-0.014325743
80	0xbdeb4460	-0.11487651
81	0xba6a3cbb	-0.0008935441
82	0xbe2fb9a3	-0.17160659
83	0xbdab7b44	-0.083731204
84	0xbdd1238a	-0.10211857
85	0x3d307363	0.04307879
86	0xbe21832e	-0.15772697
87	0x3d11baa1	0.035578374
88	0xbd6f9788	-0.05849412
89	0xbdce3f92	-0.10070719
90	0xbe02f913	-0.12790327
91	0xbdf73a2e	-0.12071644
92	0xbd5fc22c	-0.054628536
93	0xbd875e6d	-0.06609807
94	0xbdc36451	-0.09540618
95	0xbdca151a	-0.09867306
96	0xbd12d64c	-0.0358489
97	0xbda83027	-0.08212309
98	0xbbccf0b2	-0.006254279
99	0xbb306a6b	-0.0026918899
100	0xbc6fb24c	-0.014629912
101	0xbe4fe14f	-0.20300792
102	0x3d2cbbee	0.04217141
103	0xbda900e0	-0.0825212
104	0xbdd87004	-0.1056824
105	0xbe00804e	-0.12548944
106	0x3ce992ed	0.028512442
107	0xbde0c4e4	-0.10975054
108	0xbd55d558	-0.052205414
109	0xbdd9974d	-0.106245615
110	0xbd43955d	-0.047749866
111	0xbd8bbee4	-0.06823519
112	0xbe23c348	-0.15992463
113	0x3c68ed5b	0.014216746
114	0x3cfaaac9	0.030599015
115	0xbdac27f8	-0.08406061
116	0xbe1948a3	-0.14969115
117	0x3d1a2ff3	0.037643384
118	0xbe4fc4da	-0.20289937
119	0xbbf7c5e9	-0.0075614345
120	0xbd3d8655	-0.046270687
121	0xbe8b29d8	-0.27180362
122	0xbd682ac1	-0.0566814
123	0xbc0bc7a3	-0.008531484
124	0xbdcc54f6	-0.099771425
125	0x3c700d4a	0.014651606
126	0x3ca97bb7	0.020688875
127	0xbda13073	-0.07870569
128	0x3cb1bc4c	0.021696232
129	0x3d477a7d	0.0487008
130	0x3cde7cfb	0.027159205
131	0xbbb6e891	-0.0055819233
132	0x3dc10d45	0.09426359
133	0xbdd8f323	-0.1059325
134	0xbd83fcb3	-0.06444683
135	0x3c1fce56	0.009753784
136	0xbc319e0e	-0.010840906
137	0xbd66b69f	-0.056326505
138	0x3dc3ae72	0.09554757
139	0xbda875a2	-0.08225562
140	0x3d154db5	0.03645106
141	0xbbf6dd58	-0.0075337104
142	0x3d32e980	0.043679714
143	0x3c4cd2e3	0.012501451
144	0xbb54ff29	-0.003250072
145	0xbd0ff02e	-0.035141163
146	0x3cc1fd95	0.023680488
147	0xbd9a5277	-0.0753526
148	0x3cb25e28	0.021773413
149	0xbc9a0657	-0.018801851
150	0xbd42d050	-0.047561944
151	0xbcbe42c9	-0.023225205
152	0x3dcea5f2	0.10090245
153	0x3dc2acb8	0.095056
154	0xbd26f3f7	-0.040760007
155	0xbc387004	-0.011257175
156	0xbda746a2	-0.08167769
157	0xbd99293b	-0.07478567
158	0xbc90d88f	-0.017681388
159	0xbda3405c	-0.0797126
160	0x3cd1b327	0.025598122
161	0xbbd7afdd	-0.006582244
162	0xbbdf79f1	-0.0068199565
163	0x3da27f98	0.07934493
164	0xbc841c16	-0.016126674
165	0xbbb85c42	-0.0056262324
166	0xbd49fc7f	-0.049313065
167	0x3dc27553	0.09495034
168	0x3c11670e	0.008874668
169	0xbc8899f9	-0.016674982
170	0xbd0500de	-0.03247153
171	0xbcbd8792	-0.023135934
172	0x3daeb784	0.085310966
173	0xbbaa6d25	-0.0052009993
174	0x3dabf4a5	0.083962716
175	0x3da5659c	0.08076021
176	0xbd73ffe5	-0.059570212
177	0x3c38b2de	0.011273114
178	0x39c2e8e7	0.0003717609
179	0x3c81bfdd	0.015838558
180	0x3d5183a9	0.05115095
181	0xbd0bce1f	-0.03413212
182	0xbb9dd5fe	-0.0048167696
183	0xbd85c6d2	-0.065320626
184	0xbc248ed5	-0.010043819
185	0x3cdc2b24	0.02687604
186	0x3cbaf984	0.022824056
187	0xbdabfb99	-0.08397598
188	0xbc0a5cba	-0.008444959
189	0xbdeb0c46	-0.1147695
190	0xbde365c0	-0.11103392
191	0xbc86af58	-0.016441032
192	0x3d379272	0.044817396
193	0x3d191fe0	0.037383914
194	0x3b5be389	0.003355237
195	0x3c3b73d6	0.011441192
196	0x3c9e5c90	0.019331247
197	0x3bb58b3c	0.0055402797
198	0x3c53a9c8	0.012918897
199	0x3bdb9b16	0.0067018373
200	0xbb26a8bd	-0.0025430166
201	0x3c3ff8b1	0.0117170075
202	0xbc4880a2	-0.0122377
203	0xbd6ccc88	-0.057812244
204	0xbd1159cf	-0.03548604
205	0x3cc70770	0.024295539
206	0xbd46708c	-0.048447177
207	0x3d84f37d	0.06491754
208	0x3c53aed2	0.012920098
209	0x3d10b35e	0.035327308
210	0x3ccfb444	0.025354512
211	0xbcb5bc21	-0.022184433
212	0xbcc7a605	-0.024371156
213	0xb884c3c6	-6.330716e-05
214	0x3b5b5067	0.0033464672
215	0xbdd6b830	-0.1048435
216	0xbdb49a5d	-0.08818505
217	0x3c0392e8	0.008030631
218	0x3c6b8b39	0.014376455
219	0x3c48ff03	0.012267831
220	0x3dc70816	0.09718339
221	0xbca8d884	-0.020611055
222	0x3bf42db3	0.007451737
223	0xbd39b0ec	-0.04533474
224	0x3d6b9b06	0.05752089
225	0xbc020593	-0.007935899
226	0x3db194cc	0.08670959
227	0xbd003964	-0.031304732
228	0x3c1177f3	0.008878696
229	0xbc58f6e8	-0.013242461
230	0xbd08e211	-0.03341872
231	0xbce26643	-0.027636653
232	0xbc6086f6	-0.013704052
233	0x3cc66708	0.024219051
234	0x3d50093d	0.05079006
235	0xbabad492	-0.0014254025
236	0xbb6bb210	-0.0035964288
237	0xbc806515	-0.0156732
238	0xbddb9a5c	-0.10722801
239	0xbd0f682b	-0.03501145
240	0xbb06abab	-0.00205491
241	0xbd8a2f5d	-0.06747315
242	0xbc84b250	-0.016198307
243	0xbd7a5fd7	-0.061126556
244	0xbc32607f	-0.010887264
245	0x3c967c86	0.018369924
246	0x3c23c157	0.009994826
247	0x3d9d146e	0.07669912
248	0x3d4ae0f7	0.04953095
249	0xbb954e28	-0.004556436
250	0xbd92df1d	-0.07171462
251	0xbd99d3b9	-0.07511086
252	0xbc2c7b4f	-0.010527446
253	0x3da30e92	0.079617634
254	0x3bda0f56	0.00665466
255	0xbd440110	-0.047852576

1.bias f4 [128]
0	0xbe55e0b1	-0.20886494
1	0xbe6063d6	-0.21913084
2	0xbe573490	-0.21016145
3	0x3e9c898e	0.30573696
4	0x3ebfbca0	0.37448597
5	0xbdb1c1f9	-0.086795755
6	0x3ec8d856	0.3922755
7	0xbe802b3e	-0.2503299
8	0xbdfbc990	-0.12294304
9	0x3d857313	0.06516089
10	0x3db6af1c	0.08920118
11	0x3e5613a3	0.20905928
12	0xbe6c6835	-0.23086627
13	0x3d2c021d	0.041994203
14	0x3d48759f	0.048940297
15	0x3e0f665b	0.1400389
16	0x3e143718	0.14474142
17	0x3e6627d3	0.22476129
18	0xbdc27a1f	-0.09495949
19	0x3f0513db	0.5198342
20	0x3f218425	0.6309226
21	0x3d96e466	0.07367782
22	0xbe23c9f6	-0.1599501
23	0x3eb2b815	0.34906068
24	0xbec9ba1c	-0.39399803
25	0xbe266649	-0.16249956
26	0x3ee146ce	0.43999332
27	0xbd8c22e3	-0.068425916
28	0x3f20bc9a	0.62787783
29	0x3e599afb	0.21250527
30	0xbe23f277	-0.16010462
31	0x3e084380	0.13306999
32	0xbe7873cd	-0.24262924
33	0xbe41df31	-0.18932797
34	0x3f09000b	0.5351569
35	0xbe39336f	-0.18086027
36	0xbdbdef20	-0.09274125
37	0x3e87f91b	0.2655724
38	0xbe51036d	-0.20411463
39	0x3e30f95f	0.17282628
40	0xbdd59eba	-0.10430665
41	0xbdcf8ade	-0.10133909
42	0x3c9cac2f	0.019125072
43	0x3e70e0a8	0.235232
44	0x3e01df4c	0.12682837
45	0xbe7f61f9	-0.24939717
46	0x3da537bc	0.08067271
47	0x3df2eb14	0.11861244
48	0x3ee4309a	0.4456833
49	0xbdf70168	-0.12060815
50	0x3d80ad11	0.0628301
51	0x3eaead2b	0.34116492
52	0xbe0534d5	-0.13008435
53	0xbe7e360e	-0.24825308
54	0x3d26b040	0.04069543
55	0x3e01217c	0.1261043
56	0x3e335525	0.17512949
57	0x3f21c650	0.63193226
58	0xbeadc01d	-0.33935633
59	0x3e31fd77	0.17381845
60	0x3e4f31c6	0.20233831
61	0x3e8d1f02	0.2756272
62	0x3e0c2d5e	0.13689181
63	0xbe1f8375	-0.1557749
64	0x3edb2850	0.42804193
65	0x3e9f682c	0.31134164
66	0x3ef78ac4	0.48348057
67	0xbe0f98ab	-0.14023082
68	0x3effcaad	0.49959317
69	0xbe05aed7	-0.13054977
70	0xbe1c692c	-0.15274495
71	0x3e2d0688	0.16897023
72	0x3c642b21	0.013926298
73	0xbd09dc81	-0.033657555
74	0xbdc6d33e	-0.0970826
75	0x3e7c9f84	0.24670225
76	0x3e47e277	0.19519983
77	0xbe2b6f59	-0.16741695
78	0xbe38a721	-0.18032505
79	0x3e15f7da	0.14645329
80	0xb8d56e5a	-0.00010177186
81	0xba6ea575	-0.00091036345
82	0x3e1ad08a	0.15118614
83	0x3d585913	0.052819323
84	0x3e13f499	0.14448775
85	0x3f5df58a	0.8670279
86	0x3e583b51	0.21116377
87	0xbe2f10b3	-0.17096214
88	0x3f16debb	0.5893361
89	0x3ef4bb7e	0.47799295
90	0x3dec4209	0.11536033
91	0x3c7c615f	0.015404074
92	0xbe23498d	-0.15946026
93	0x3ead8a36	0.3389451
94	0x3e10d881	0.1414509
95	0x3e9bed87	0.30454656
96	0x3f4ad985	0.7923816
97	0xbe10ac5e	-0.14128253
98	0xbc957692	-0.018245015
99	0x3e4290cd	0.1900055
100	0x3d495583	0.049153816
101	0xbd4fa4f4	-0.05069442
102	0xbd2f9837	-0.042869773
103	0xbe4edf5b	-0.20202391
104	0x3eb29a69	0.3488343
105	0xbd83ad01	-0.06429482
106	0x3e5e5322	0.217114
107	0xbd5da461	-0.054111842
108	0xbe42baf5	-0.19016631
109	0xbd525101	-0.051346783
110	0xbe563728	-0.20919478
111	0x3e97c5fa	0.29643232
112	0x3d2c67fe	0.042091362
113	0x3f05846c	0.52155185
114	0xbe478d2b	-0.19487445
115	0x3ec6645f	0.38748452
116	0xbdd1852f	-0.10230481
117	0xb858e6ea	-5.171347e-05
118	0xbe4b6917	-0.19864307
119	0x3d8917a5	0.06693963
120	0xbe1784f6	-0.14796814
121	0x3d9cb1cf	0.07651102
122	0xbe974015	-0.29541078
123	0x3c3c6d85	0.011500721
124	0x3d4b8d62	0.04969538
125	0x3ec51674	0.38493693
126	0xbe164869	-0.1467606
127	0x3e678ba5	0.22611864

3.weight f4 [128, 128]
0	0x3c1cb992	0.009565728
1	0xbcbf3588	-0.023340955
2	0xbba9e288	-0.0051844753
3	0xbd1e6a11	-0.03867537
4	0x3d65aac8	0.056071073
5	0xbdffce6c	-0.12490544
6	0x3d14ba0d	0.036310244
7	0xbd229d23	-0.03970064
8	0x3c83337b	0.016015759
9	0xbba1a7b7	-0.0049333232
10	0xbd8f3ee9	-0.06994421
11	0xbded7e59	-0.115963645
12	0x3c46aa54	0.01212557
13	0xbe06d2ea	-0.13166395
14	0x3c43ca54	0.011950094
15	0xbe0cab40	-0.13737202
16	0xbddb69dc	-0.107135504
17	0xbe2cd20c	-0.16877002
18	0xbd15881f	-0.03650677
19	0xbcde0561	-0.027102174
20	0x3d9b5158	0.075838745
21	0x3c997235	0.018731216
22	0xbd6715ca	-0.056417264
23	0x3d611524	0.054951802
24	0xbdf5fc4f	-0.12011015
25	0xbca39ec7	-0.019973172
26	0xbd4f9c4f	-0.050686177
27	0xbd181414	-0.037128523
28	0x3cd02ee7	0.02541299
29	0xbc566e73	-0.013087857
30	0x3d34f16d	0.044175554
31	0x3e0a997b	0.1353511
32	0x3c975c16	0.018476527
33	0x3d312873	0.043251466
34	0xbbe9096a	-0.007111718
35	0xbd261043	-0.040542852
36	0x3cdcb46e	0.026941504
37	0xbd8eb31e	-0.06967758
38	0xbcd4fabb	-0.025998464
39	0x3daa3966	0.08311729
40	0xbcdb6f13	-0.026786363
41	0x3cba7edd	0.022765571
42	0xbb684cbf	-0.0035446135
43	0xbdc0d509	-0.09415633
44	0xbd9d1f68	-0.07672006
45	0xbdb2cdd9	-0.087306686
46	0xbce9a1e6	-0.028519582
47	0xbdd1010f	-0.1020528
48	0xbdbc43d7	-0.09192627
49	0xbce7c923	-0.028294152
50	0xbde7bc95	-0.11315266
51	0xbc8838fb	-0.016628733
52	0xbceb2558	-0.02870433
53	0xbd15eae2	-0.036600955
54	0xbdac59ee	-0.0841559
55	0xbc11f6cd	-0.00890894
56	0x3da20191	0.07910455
57	0xbdc05209	-0.09390647
58	0xbdabb2dd	-0.08383725
59	0xbd163427	-0.03667083
60	0xbccc1d91	-0.024916442
61	0xbdd22884	-0.10261634
62	0x3ca254f8	0.019815907
63	0xbbcf4644	-0.006325515
64	0xbd3fd42d	-0.046833206
65	0xbd3034cf	-0.043019112
66	0x3b8e08d9	0.004334551
67	0x3cd69867	0.026195718
68	0xbd95cb4d	-0.07314167
69	0xbca2e796	-0.01988582
70	0xbca59fc9	-0.020217793
71	0x3c74510b	0.0149119
72	0xbde51362	-0.111853376
73	0x3c41f1ee	0.011837466
74	0xbd6a5312	-0.05720813
75	0x39f52ace	0.00046761933
76	0xbc8af81b	-0.016964009
77	0xbd988777	-0.07447713
78	0xbe0783fc	-0.13233942
79	0x3cdeec9c	0.027212434
80	0xbc3a1125	-0.011356627
81	0x3ccac6dc	0.024753027
82	0xbdcecd67	-0.10097771
83	0xbe20e4e6	-0.15712318
84	0x3d8138fe	0.063096985
85	0x3cb8495f	0.022495924
86	0xbcd55434	-0.026041128
87	0xbd27dcdd	-0.040982116
88	0xb8a5af9b	-7.900522e-05
89	0xbd04a592	-0.032384463
90	0xbcfe6b41	-0.031057002
91	0x3c918ac2	0.01776636
92	0x3cab958c	0.020945333
93	0x3ce8cbcb	0.028417489
94	0xbe1b0334	-0.1513794
95	0xbd16a159	-0.036774967
96	0xbd52b9ac	-0.0514466
97	0x3cd5aafd	0.02608251
98	0x3c63a9a3	0.013895425
99	0xbe25dded	-0.16197939
100	0xbdc98c46	-0.09841208
101	0xbd93765e	-0.07200311
102	0x3be231bb	0.006902901
103	0x3d10c7b7	0.035346713
104	0xbcacb7aa	-0.021083672
105	0xbdb8c5ba	-0.09022088
106	0xbda26b29	-0.079305954
107	0x3d94f87a	0.07273956
108	0xbd2ef4a2	-0.04271377
109	0xbd61999e	-0.05507814
110	0xbd27f9c7	-0.04100969
111	0x3babf8b9	0.005248156
112	0x3d9a152a	0.07523568
113	0xbc68db2d	-0.014212412
114	0xbb32807b	-0.0027237225
115	0xbdfc3bd3	-0.12316098
116	0xbcbaad2d	-0.022787655
117	0xbd9bd947	-0.07609802
118	0xbdad90be	-0.08474873
119	0x3d0b0c2b	0.03394715
120	0xbdf108ff	-0.11769294
121	0x3c2678b6	0.010160616
122	0xbe142a1e	-0.14469191
123	0xbd2d8a61	-0.042368297
124	0xbd51f3c9	-0.051257882
125	0xbdbc8d02	-0.092065826
126	0x3ca30b25	0.019902775
127	0x3d559b66	0.052150153
128	0xbd03a6d6	-0.03214153
129	0xbd46a19c	-0.048493966
130	0xbd8f35fa	-0.06992717
131	0x3c3148f6	0.010820618
132	0x3d192871	0.037392084
133	0x3d3f46a5	0.04669823
134	0xbddb1e5e	-0.106991515
135	0x3d39d226	0.04536643
136	0xbdd1e66c	-0.102490276
137	0xbd2754a9	-0.040852223
138	0x3da26a46	0.07930426
139	0xbd91fbe6	-0.07128124
140	0xbc9b00f6	-0.018921357
141	0xbdaea0cb	-0.085267626
142	0x3ca8fff0	0.020629853
143	0x3d19471d	0.037421335
144	0xbd8e6488	-0.069527686
145	0x3d0de80c	0.034645125
146	0x3ca5ca56	0.020238083
147	0xbd2463b8	-0.04013416
148	0x3c24611e	0.01003292
149	0xbdea90ff	-0.11453437
150	0x3c929939	0.017895328
151	0xbd2842f9	-0.041079495
152	0x3d558388	0.05212739
153	0xbddced9b	-0.10787507
154	0x3d0ee642	0.03488756
155	0xbdccbf5e	-0.09997438
156	0x3dba0fe1	0.0908506
157	0xbcd44e0f	-0.025916127
158	0xbd14439d	-0.036197294
159	0x3d3149a4	0.04328312
160	0xbd180caa	-0.037121452
161	0x39f8f837	0.0004748718
162	0x3d024d90	0.03181225
163	0xbd488e94	-0.048964098
164	0xbd5b4ebe	-0.05354189
165	0xbc880d57	-0.016607923
166	0xbda5cb4c	-0.080954164
167	0x3d084d37	0.033276763
168	0xbd9071ea	-0.070529774
169	0xbdc21ee6	-0.0947855
170	0xbcc18bf3	-0.023626303
171	0xbc6475f4	-0.013944138
172	0x3c80ad8c	0.015707754
173	0xbd6387dc	-0.055549487
174	0x3c302a29	0.010752239
175	0xbd71eff1	-0.059066717
176	0xbd80b5ee	-0.062847
177	0x3b267019	0.0025396405
178	0x3c90e769	0.01768847
179	0xbd70615c	-0.0586866
180	0xbdcc3013	-0.09970107
181	0x3bf569f7	0.0074894386
182	0xbd2b53a0	-0.041827798
183	0xbd35def2	-0.04440207
184	0x3c95f633	0.018305873
185	0xbe1d3e49	-0.15355791
186	0xbe1a5a69	-0.15073551
187	0xbdb8277e	-0.089919075
188	0xbc062bf4	-0.00818919
189	0xbda5bfce	-0.080932245
190	0xbd653b46	-0.05596473
191	0x3d0448b5	0.0322959
192	0xbd442605	-0.04788782
193	0x3b1a9a1c	0.0023590392
194	0x3c9e53a6	0.019326996
195	0x3d25aead	0.040449787
196	0xbd6eb844	-0.0582812
197	0xbd58e6f1	-0.052954618
198	0xbd3902ea	-0.045168795
199	0x3cda0468	0.02661343
200	0x3cd54419	0.026033448
201	0x3cca1a0c	0.024670623
202	0xbd9844dd	-0.0743501
203	0xbb567952	-0.003272612
204	0x3d1eb7d9	0.03874955
205	0xbd3ff6c6	-0.0468662
206	0xbd47e3b0	-0.048801124
207	0x3c488704	0.0122392215
208	0xbd3e3bff	-0.046443935
209	0xbc0dc85a	-0.008653725
210	0x3d413c05	0.04717638
211	0x3ae6e40e	0.0017615573
212	0xbd45b208	-0.048265487
213	0x3b0f7465	0.0021889445
214	0x3d5b2722	0.053504117
215	0x3ca015c0	0.019541621
216	0xbce4fe50	-0.027953297
217	0xbc196c27	-0.009364164
218	0x3dc0d757	0.09416073
219	0xbdda66d7	-0.106641464
220	0xbd936b86	-0.07198243
221	0xbcf085c0	-0.029360652
222	0xbdabd917	-0.08391016
223	0xbd6be52b	-0.0575916
224	0xbd351c3b	-0.044216376
225	0x3d8c2bca	0.068442896
226	0xbd3320d6	-0.043732487
227	0xbddb1daa	-0.10699017
228	0x3d8fccd6	0.07021491
229	0x3d27ea8a	0.04099516
230	0xbdb8d9d6	-0.09025924
231	0xbcae540e	-0.021280315
232	0xbc6790d9	-0.0141336555
233	0xbd294e9e	-0.04133474
234	0xbd9f575a	-0.07780333
235	0xbc867325	-0.016412327
236	0x3c799575	0.015233387
237	0xbdabc7f7	-0.0838775
238	0x3cecabcf	0.028890518
239	0xbc4d9459	-0.012547576
240	0x3ca4978e	0.020091798
241	0x3b93e67b	0.0045135594
242	0xbda5057a	-0.08057685
243	0xbc34e7a7	-0.011041558
244	0x3d4f421f	0.050600167
245	0x3ca41939	0.020031558
246	0xbd2e1db7	-0.042508807
247	0xbcdc48c1	-0.02689016
248	0xbd357457	-0.044300403
249	0xbd0a1790	-0.033713877
250	0x3c92b4da	0.017908502
251	0x3d10b0c4	0.035324827
252	0x3db1476b	0.086562
253	0xbdc44dac	-0.09585127
254	0x3cd4ad8c	0.02596166
255	0xbc25d41f	-0.010121374

3.bias f4 [128]
0	0x3d21e8cf	0.039528664
1	0x3c82aa0d	0.015950227
2	0xbc693c99	-0.014235639
3	0xbd951075	-0.072785296
4	0xbceb28b3	-0.02870593
5	0x3d8d610a	0.06903274
6	0x3de640e4	0.11242846
7	0x3b9a91d1	0.0047170897
8	0x3e23a7f2	0.15982035
9	0x3f05e5cd	0.52303773
10	0xbdac72c0	-0.08420324
11	0x3d55a428	0.052158505
12	0x3c10012d	0.008789343
13	0xbca9d5fa	-0.020731915
14	0xbdbdd04f	-0.09268247
15	0x3ef80960	0.48444653
16	0x3d85831b	0.06519147
17	0x3ecfbc4b	0.40573344
18	0x3f71b780	0.94420624
19	0x3d9f1f0d	0.07769594
20	0x3efaadda	0.48960763
21	0x3f1b7d41	0.60738
22	0x3f175589	0.5911489
23	0x3f194013	0.59863394
24	0x3cd34f5a	0.025794674
25	0x3dbd9d74	0.092585474
26	0x3f23b56f	0.6394872
27	0x3d1cb969	0.03826276
28	0x3ee20885	0.44147125
29	0x3ecf65ce	0.40507358
30	0x3dd5837a	0.10425468
31	0xbc9fdf7f	-0.01951575
32	0x3db7c0f2	0.08972348
33	0xbd795707	-0.06087401
34	0xbe022952	-0.12711075
35	0xbd746f11	-0.059676234
36	0xbbc5c391	-0.006035276
37	0x3f2d1122	0.6760427
38	0x3eae7553	0.34073886
39	0x3f2ae464	0.66754746
40	0x3f057cda	0.52143633
41	0x3cf425b5	0.029803136
42	0x3d351376	0.044208013
43	0xbd64ff46	-0.05590751
44	0xbce182c9	-0.027528184
45	0xbdbfcfcd	-0.09365807
46	0xbd1149c1	-0.035470728
47	0x3f0fcd14	0.561723
48	0xbdb4093d	-0.087908246
49	0x3e4ce00e	0.20007345
50	0xbdb3d51a	-0.0878088
51	0xbd5e9b4b	-0.054347318
52	0xbde6d7a2	-0.112715974
53	0xbe021cb9	-0.1270627
54	0x3b1f5822	0.0024314006
55	0xbd1d0198	-0.038331598
56	0x3dc42060	0.095764875
57	0x3ba97f61	0.0051726555
58	0x3d26d7eb	0.04073326
59	0x3d0c3a77	0.034235444
60	0x3e8a7f67	0.27050325
61	0x3e263a36	0.16233143
62	0x3f509ade	0.8148631
63	0x3f0b0816	0.54309213
64	0x3e87d13e	0.26526827
65	0xbd9edb52	-0.07756676
66	0x3e5076a9	0.20357765
67	0x3ca9bd8b	0.020720264
68	0x3ca68217	0.020325704
69	0xbd9cab2b	-0.07649835
70	0xbd968687	-0.07349878
71	0x3d442c93	0.04789407
72	0x3f079d56	0.5297445
73	0x3e0a5fbf	0.13513087
74	0xbce55fd0	-0.027999789
75	0xbc6729c3	-0.014109078
76	0x3d29f969	0.04149762
77	0xbdda3373	-0.106543444
78	0x3edc7e67	0.43065187
79	0xbbde7e39	-0.0067899493
80	0x3f072f65	0.52806693
81	0x3f124295	0.57132846
82	0x3aa4da4b	0.0012577263
83	0x3f034a93	0.51285666
84	0x3c670c9f	0.01410213
85	0x3de07ca4	0.10961273
86	0x3efa28da	0.48859292
87	0x3dcdf784	0.100569755
88	0xbd986952	-0.07441963
89	0x3e1e0104	0.15430075
90	0x3efcf93d	0.49408904
91	0x3dc1e226	0.094669625
92	0xbc80bec3	-0.015715962
93	0x3da30691	0.07960237
94	0x3ed347d2	0.41265732
95	0x3f16ea22	0.5895101
96	0xbda4bb05	-0.08043484
97	0xbdd1f6c1	-0.10252143
98	0x3d6044e3	0.054753195
99	0xbdbcb437	-0.09214061
100	0x3ece8b1f	0.40340516
101	0x3ce60fda	0.02808373
102	0xbd35dd52	-0.04440052
103	0x3edcf48d	0.43155327
104	0xbcb7546b	-0.02237912
105	0x3d879e07	0.06621938
106	0x3d8a321d	0.067478396
107	0x3d007a0c	0.031366393
108	0x3f0e8c00	0.55682373
109	0x3c6897d9	0.01419636
110	0x3efdd073	0.49573097
111	0x3e9e06e1	0.30864623
112	0x3f158501	0.5840607
113	0x3f017a2b	0.5057704
114	0xbd8968b4	-0.06709424
115	0x3e21bb7b	0.15794174
116	0x3f4062ce	0.75150764
117	0x3ed0c1fa	0.40772992
118	0x3c7e9b25	0.015539919
119	0x3f09d00a	0.5383307
120	0x3f0169c8	0.50552034
121	0x3f1af09f	0.6052341
122	0x3d58ea24	0.05295767
123	0xbdff2137	-0.12457507
124	0x3f0cf58a	0.5506216
125	0x3c57f1e9	0.0131802345
126	0xbf29b773	-0.66295546
127	0x3e21c3e8	0.15797389

5.weight f4 [1, 128]
0	0x3bc34272	0.0059588486
1	0x3bd9137d	0.0066246376
2	0x3cec82a0	0.02887088
3	0xbc20ed81	-0.00982225
4	0xbbeb97eb	-0.007189741
5	0xbc1c794e	-0.009550406
6	0x3dfc0407	0.12305456
7	0xbaeffa95	-0.0018308932
8	0x3d963a06	0.07335286
9	0xbd94bc12	-0.07262434
10	0x3b549b07	0.0032441036
11	0x3d97fb4b	0.07420977
12	0xbe2bd57d	-0.16780658
13	0xbc8bed14	-0.017080821
14	0xbc45c264	-0.012070272
15	0xbd8d7cfb	-0.06908604
16	0x3cc48d46	0.023993146
17	0x3c14497a	0.009050721
18	0xbe9e18f0	-0.308784
19	0x3d1890bb	0.0372474
20	0xbd9e8a57	-0.0774123
21	0xbdc3c8fb	-0.09559818
22	0xbdf187e2	-0.11793496
23	0xbdd06405	-0.10175327
24	0x3db0f7d7	0.08641022
25	0x3dbb935e	0.091589674
26	0xbdba4ee8	-0.090970814
27	0x3b44e175	0.003004161
28	0xbcea7a48	-0.028622761
29	0xbd79374e	-0.06084376
30	0x3be66a4c	0.0070317145
31	0xbd06b88e	-0.03289085
32	0x3d6074b0	0.054798782
33	0xbbc3d78d	-0.0059766234
34	0xbce903b4	-0.028444149
35	0xbd09f4e9	-0.03368083
36	0xbc125988	-0.008932479
37	0xbdc2d303	-0.095129035
38	0xbd014f2c	-0.031569645
39	0xbde8db9e	-0.11370014
40	0xbd79d9ef	-0.060998853
41	0x3c0f7e70	0.008758172
42	0xbb9fe88f	-0.004880018
43	0xbe268340	-0.16261005
44	0xbc43e7e3	-0.011957142
45	0xba1bf6fb	-0.0005949584
46	0xbbd1cadc	-0.0064023566
47	0xbdaf2f3b	-0.0855393
48	0x3bc8a102	0.0061227093
49	0x3e3c18b5	0.183688
50	0xbc8c50d1	-0.01712838
51	0x3d43d955	0.047814686
52	0xbc14f007	-0.00909043
53	0xbca98193	-0.020691669
54	0x3c08db0e	0.008353008
55	0xbc2a25f8	-0.010385029
56	0xbb92a221	-0.0044748937
57	0x3dd34948	0.10316712
58	0x3d2b34c3	0.041798364
59	0x3bf07127	0.0073377076
60	0xbce64c04	-0.028112419
61	0xbe840a05	-0.25788894
62	0xbe18f050	-0.14935422
63	0xbdb87824	-0.0900729
64	0x3b7bc2cc	0.0038415669
65	0xbbe6ba11	-0.007041224
66	0x3c00a89e	0.0078527015
67	0xbdf2bed4	-0.11852804
68	0x3e00f7da	0.12594548
69	0xbd575608	-0.05257228
70	0xbc234e75	-0.009967436
71	0x3dd58fa4	0.10427788
72	0xbd801221	-0.06253458
73	0xbc5d7fd3	-0.013519245
74	0xbcfe64d4	-0.031053938
75	0xbc8bc561	-0.017061891
76	0xbd8f283f	-0.06990098
77	0x3ccd7dd5	0.025084415
78	0xbd6f61d7	-0.058442917
79	0xbc0141f0	-0.007889256
80	0xbd97360a	-0.07383354
81	0xbda8164c	-0.08207378
82	0x3c90e20b	0.01768591
83	0xbd8fab08	-0.070150435
84	0xbc26f758	-0.010190807
85	0xbb18c279	-0.0023309274
86	0xbd4efac7	-0.05053213
87	0x3d12dfbd	0.035857905
88	0xbbc0c068	-0.0058823116
89	0x3d5d9bbc	0.054103598
90	0xbd8eee37	-0.069790296
91	0xbc25bf84	-0.010116462
92	0xba188a17	-0.0005818917
93	0x3b06d6d4	0.0020574825
94	0xbd1592d5	-0.036516983
95	0xbdbe0421	-0.09278131
96	0xba52f5f3	-0.00080475135
97	0xbbe70632	-0.007050299
98	0x3d77d978	0.06051013
99	0xb99aa0bc	-0.00029492925
100	0xbd431a37	-0.047632422
101	0x3d82b842	0.06382801
102	0x3c306113	0.010765332
103	0xbd13e6f0	-0.03610891
104	0x3c5f8762	0.013643118
105	0xbac1d740	-0.0014788881
106	0x3d1dbd03	0.038510334
107	0x3d2ac9c1	0.041696314
108	0xbdcd0dcf	-0.100123994
109	0xbdd782e4	-0.10523012
110	0xbdb7c8ff	-0.08973884
111	0xbc3702ee	-0.011170132
112	0xbd840be6	-0.06447582
113	0xbd9e1d43	-0.07720425
114	0x3c7268a3	0.014795455
115	0xbc8799ac	-0.016552769
116	0xbe3c3e5b	-0.18383162
117	0xbce9a544	-0.028521188
118	0xbc8af967	-0.016964627
119	0xbda19047	-0.07888847
120	0xbd9b7ff5	-0.07592765
121	0xbdb62c66	-0.08895187
122	0xbc485dc0	-0.012229383
123	0x3b1bbc34	0.00237633
124	0xbd9dbf87	-0.077025466
125	0x3d872ef4	0.066007525
126	0xbea97241	-0.3309498
127	0xbd325623	-0.043539178
